Assets/My Behavior.onnx (onnx, 96310 bytes, 23 tensors)

action_model._discrete_distribution.branches.0.bias f4 [2]
00000000: db86 6bbd c886 6b3d
-0.057501655 0.057501584

action_model._discrete_distribution.branches.0.weight f4 [2, 128]
00000000: 8c17 a03c 0af9 6f3d a8b2 413d 5cef d23c
00000010: 17ef 99bb 8c5d 85bd 0433 0a3d 8bd7 b63d
00000020: 7844 e43c ebc1 b0bb 7b6a 203e 8e52 1cbe
00000030: 464a 1638 b1f3 0cbd bd43 fabc a299 dcbc
00000040: 4fc1 0cbd 6d18 abbd ef7a 1e3b c5e9 ab3c
00000050: 25d4 e83d de20 213d 812d 753c 1e2c 673d
00000060: 34fa e63d 8357 1d3d 20d3 353d 79af a93d
00000070: f9fc 8ebc 61bd 62bc 04ea 5fbc 1c50 253e
00000080: 72e6 3cba 8383 b0bb 53f4 c33d 2af0 73bc
00000090: fbe7 49bd 745a 8b3d a5b1 c43b 1d61 5a3d
000000a0: 09da 5bbd 24a4 b03b 8ec8 bb3d cefa 033d
000000b0: 03b2 1a3e d3ff 193d 8336 243c c74a 04bd
000000c0: 683f 023d c744 d23b 4ce1 093b 76b4 3f3d
000000d0: 36ba bebc 34ce 2ebd 9ee7 453b 32a0 b4bb
000000e0: 7826 a6bc 994f ac3d 4c01 803d 70a5 023b
000000f0: ecd2 a83d ab6d da3b 73f6 793d 3555 fa3c
00000100: 0342 ec3d 2666 b2bd f493 203d 5e72 413b
00000110: fbb8 f9bb 5ce6 e1bd 65b4 60bd f3e9 403d
00000120: c185 2abb ffca 6b3d ec70 543d 6d08 1c3c
00000130: b9d6 c3bd 3e41 14bc dcd8 1abd 519e 73bc
00000140: 6182 9db8 8f09 8b3d f305 863d 7778 bb3d
00000150: d0c3 903c 6862 ebbb d211 013d 4bd0 fdbd
00000160: 1b49 31bd ae22 d0bc e409 b6bc 7c39 6abc
00000170: 6022 af3c 1377 9d3c 49c4 a1bc 0fbf d8bc
00000180: 7239 4fbd 0316 5b3c 749c 9c3c 60a2 e73d
00000190: d966 183e 037c 94be f0e0 0f3e 2349 7f3c
000001a0: 81d4 203c e65d c8bc fb2f a23d c050 133d
000001b0: b896 163d 43e0 943b 3867 073e 8134 b03b
000001c0: 78fa 97bb 1681 a03d 55bc 71bd d155 d53d
000001d0: d270 ae3c c3b4 52be 259b 433c dd98 2dbd
000001e0: ff2e cc3c 4c72 61bd d8d3 9f3d 2314 563d
000001f0: c0bc 273d cbbc a33b 658a 20bd 5276 d53c
00000200: e160 97bb 50ed acbd 2c1d 3cbd 36f3 babc
00000210: f5bd 233c 8b43 6e3d 0329 f3bc 870d c9bd
00000220: bdfa e9bc 6732 b0bb a487 05be d29c 153e
00000230: 6c1c 903c 4e5f 923c 3535 1f3d b6c5 d13c
00000240: dec0 453d e82d 913d b195 c7bc 9219 a9bc
00000250: f993 eebd c66f 4fbd ec56 dabc 8896 89bd
00000260: e690 cfbd 9503 5abd d2f7 10bd 4153 a0bd
00000270: 7044 4f3c 6b5f 15bc 13e8 8b3c 9a3b 28be
00000280: 008d b7bb ffa9 4fba f5c0 9fbd 42bb 3a3d
00000290: 0f65 da3c 316a aebd e4c4 34bc 9896 45bd
000002a0: 27a5 633d b6bb f0ba 5874 dfbd c219 d5bc
000002b0: a766 23be 294c 3fbd 6459 37bc 3ca4 e43c
000002c0: 8e49 febb 4863 5bbb 3f32 58bc 4253 50bd
000002d0: c84a ef3c 558f 0e3d 37c1 893c 5f55 1b39
000002e0: 2df5 953c c5ba aabd 9d63 abbd a996 3fbc
000002f0: dfd9 b7bd ae7d 723c a870 2abd 3138 08bd
00000300: 61d9 ecbd af6e 983d 0bf6 c7bc b77a cdbc
00000310: 88c3 cd3b fb02 913d cb19 7c3d 4927 81bd
00000320: e91a 723b 2609 55bd b442 7dbd 3deb 83bc
00000330: 17b7 c93d 2f4b 1e3d 1c93 ff3c 923f 173c
00000340: d1f0 9abc d2b1 83bd 0a84 8bbd 6620 c0bd
00000350: bdba a9bc bebf ef3a f6d2 c5bc fd6b 113e
00000360: ec23 463d 7bd9 2b3d 333c 373d bec6 953c
00000370: b0f4 8dbc 01bb 53bc bbe7 ff3c 8703 533c
00000380: f8ed 573d 35ef 08bd 5dc1 00bd 2e16 04be
00000390: eb85 e1bd cb3c 953e 3c05 2bbe c160 b3bc
000003a0: 8c71 c73a e0f8 db3c 7110 89bd 353b e0bc
000003b0: 2fa9 26bd 2d75 43bc e909 0bbe 3ad1 82bc
000003c0: 06e5 b7bc b064 71bd 3b15 5e3d c4ae b6bd
000003d0: d794 80bc 69f5 453e bb12 74bc 01a6 493d
000003e0: c652 3dbc bd9e f63c 8ddc 82bd 6ebf 5cbd
000003f0: f772 79bd 405f 04bc b7c0 a93c 17a9 8a3a
0.019542478 0.05858711 0.04728952 0.025748901 -0.004697691 -0.06511983 0.03374006 0.0892783
0.02786468 -0.0053942106 0.15665619 -0.15265867 3.583196e-05 -0.03441209 -0.030549878 -0.026928727
-0.03436404 -0.08354268 0.002418216 0.020985493 0.11368588 0.039337985 0.014964462 0.056438558
0.11278191 0.038413536 0.044390798 0.08285422 -0.017454611 -0.013839097 -0.0136666335 0.1614384
-0.000720597 -0.005386771 0.095680855 -0.014888803 -0.0492935 0.06804362 0.006002622 0.05331527
-0.05367473 0.005390661 0.09169112 0.032221608 0.15106969 0.03759749 0.010022762 -0.032297876
0.03179875 0.0064168903 0.0021038828 0.04680296 -0.023282152 -0.04267712 0.003019787 -0.005512261
-0.020282015 0.084136195 0.06250247 0.0019935034 0.08243355 0.0066659055 0.061026048 0.030558208
0.11536028 -0.087108895 0.0392036 0.002951763 -0.0076209283 -0.11030266 -0.054859538 0.04709811
-0.0026019665 0.05756664 0.051865503 0.009523493 -0.095624395 -0.009048758 -0.03780447 -0.014869289
-7.510628e-05 0.067889325 0.065441035 0.09153836 0.017671496 -0.007183362 0.031511135 -0.12393244
-0.04328261 -0.025407162 -0.022221513 -0.014295932 0.021378696 0.019221818 -0.019746916 -0.026458291
-0.050591893 0.013371947 0.019117571 0.113102674 0.14882983 -0.29000863 0.1405065 0.015581402
0.00981629 -0.024458837 0.07919308 0.03596568 0.03676483 0.0045433356 0.13222969 0.0053773527
-0.0046380125 0.07837121 -0.059017498 0.10416759 0.021294031 -0.20576768 0.011938845 -0.04238211
0.024924753 -0.055040643 0.07804078 0.052265298 0.04095149 0.004996871 -0.039194483 0.026057396
-0.004619703 -0.08443701 -0.045926258 -0.02282105 0.00999402 0.058169883 -0.029682642 -0.09817033
-0.028561944 -0.005377102 -0.13040024 0.14610603 0.017591678 0.01786771 0.0388691 0.025606971
0.048279636 0.07088834 -0.02436337 -0.020642076 -0.11649317 -0.050643705 -0.026652776 -0.06718165
-0.10135059 -0.053226072 -0.03539259 -0.078283794 0.012650594 -0.009116988 0.017078435 -0.16428986
-0.0056015253 -0.0007921755 -0.078004755 0.04558874 0.026659517 -0.08516348 -0.0110332705 -0.04823932
0.055577423 -0.0018366489 -0.10910863 -0.026013259 -0.15957128 -0.04670349 -0.011190746 0.027910344
-0.0077602332 -0.0033475924 -0.013195573 -0.05086065 0.029210463 0.03480466 0.016815765 0.00014813755
0.018305385 -0.08336405 -0.08368609 -0.011693635 -0.089771025 0.014800472 -0.041611344 -0.033256713
-0.11564899 0.07442986 -0.024409315 -0.025082929 0.0062794127 0.070806466 0.061548036 -0.06306321
0.003694231 -0.052010678 -0.06183119 -0.016103381 0.09849375 0.03864592 0.031198077 0.009231465
-0.018913658 -0.06430401 -0.06812294 -0.093811795 -0.020718927 0.0018291397 -0.024148446 0.1420135
0.0483741 0.041955452 0.044735145 0.018283244 -0.01732859 -0.012923003 0.031238427 0.012879259
0.05271718 -0.03343125 -0.031434406 -0.12899086 -0.11011871 0.29147944 -0.16701216 -0.021896722
0.0015216335 0.026852071 -0.06692589 -0.027371982 -0.04068869 -0.011929792 -0.13577999 -0.015968908
-0.022448074 -0.058933914 0.054219466 -0.08920053 -0.015695972 0.19331898 -0.014897044 0.04923058
-0.011555379 0.03010499 -0.06389723 -0.0538935 -0.060900655 -0.00807935 0.020721776 0.0010578957

action_model._discrete_distribution.branches.1.bias f4 [2]
00000000: d3e0 22bd d7e0 223d
-0.03976519 0.039765205

action_model._discrete_distribution.branches.1.weight f4 [2, 128]
00000000: 6c0b 27bd b6d7 653c 8cf2 12bd 6446 803d
00000010: 26e6 8fbd 7a5c 053d e0c6 ddbb ab4a f3bd
00000020: 4094 62bc b47c 04bd d47b 62bc ca79 1cbc
00000030: c492 93bc a1a5 acbc d097 aebc c687 35bd
00000040: b0b7 0b3d b189 7fbd 5b7d d43a 5bd5 7e3d
00000050: f323 ab3d 0467 8f3c 544a e63d bcee 5e3d
00000060: e8ab e23c d99b afbc a905 15bd 8d82 ed3b
00000070: be8b 6f3d 091b c83c 7ade 483d 8eeb 2f3d
00000080: c90e a63a 6e93 9ebd 96ca d33c 5d2f 0a3d
00000090: ca29 77bc 8dee c0bc 998e c83c 3c56 20bc
000000a0: 40e7 6abd ed81 343d 5821 863c da8e 69bd
000000b0: 9a2f 6cbc 7ebe ac3a 027e bdbb 49b6 b8bb
000000c0: defd bb3c 8fd3 313d 59d5 c33d bd1f 3bbd
000000d0: 87a5 87bd 6938 1c3d e602 053c 8e6f b83d
000000e0: d8e4 2abd d56c 713d e106 923c d3d1 053d
000000f0: e16c 8b3c 4e6c 71bd f4fe 513c 19a9 9f3c
00000100: d5b0 58bb 7882 0cbe c438 593d 90d4 393d
00000110: bb0f 40be 9eca 5dbd b22a 67bb e0ab 45bc
00000120: 79f4 7f3d 3aa1 e5bc 9a97 893c d05b 823c
00000130: 8b09 ffbc e620 cdbc 36b3 553d e101 1ebc
00000140: a066 b0bb b02e ba3c 340a ac3d 90cb 043d
00000150: d443 33bc fd23 403b 20e6 afbc fab0 273c
00000160: ca71 1f3d 3973 68bd 23ea 353c 50ec 26bd
00000170: 426e 01bd e33e 253c 59cb 6c3c abc5 533d
00000180: 03a6 913c abe8 903d 5783 85bd d3f4 5a3d
00000190: 9bb0 f73c 288b 623d 6051 1ebd 8091 c23d
000001a0: f2a8 30bc 5c9b 88bd ae29 903b 5797 7f3d
000001b0: adee 6abc 6c71 9fbc e373 d3bc e1e5 a2bc
000001c0: 4b02 18be 58a4 b8bc 20b8 8a3c cb8e 05bc
000001d0: 111f 2e3c e247 6fbc 71e2 893c ea9a 633d
000001e0: 9af5 713d 66b8 0fba 6340 76bc 1495 09be
000001f0: f690 623d e2f8 94bd da82 033d 05f5 a3bd
00000200: e198 133d abd5 a6bc 2d7d be3c 85a6 44bd
00000210: 3bd8 933d 30f0 3dbd 610e 2dbc 50d1 033e
00000220: d4ee 093c 0c52 283d 8faa af3b 37ac e23c
00000230: e5e7 a43c c75f a43c b038 163d 903b 233d
00000240: 3f45 05bd 5d43 853d abe2 33bc 7b1a 1cbd
00000250: 18e0 b6bd 51e0 9cbc edf9 9cbd 1c1b a9bd
00000260: 2e1e 0ebd b15c 323c 6a93 0f3d 3b67 cbbc
00000270: bf21 54bd 300d 94bc c9de 3abd 7495 06bd
00000280: 8686 3f3c dde5 643d 9fb4 23bd 3a48 09bd
00000290: d02d 923c eac2 ac3c 7b30 cdbc b95f de3c
000002a0: 5beb 963d 7ba0 18bd 59be 53bc 163e 813d
000002b0: 28fd f3bb 63eb 34bc 055f 463c bf2b a93c
000002c0: 2254 a6bc 4f3d 2cbd 9bbd b3bd 1628 843d
000002d0: 1ab7 923d 26a0 f4bc 77bb a0bb ae1b afbd
000002e0: 14f4 6b3d c468 44bd bb12 8ebc b663 25bd
000002f0: 4e41 73bc 5ba3 043d 44c6 00bc edf4 94bc
00000300: da3f 813c b606 083e 2992 85bd c034 1abd
00000310: a64d 2c3e d0ca a23d 9e10 09bc 77d0 c6bb
00000320: 6892 a4bd 3df5 433d 3a8c 37bc 9e42 d5bc
00000330: 3ea4 8c3c 1e40 d63c 4b44 5fbd 8d8c 6a3c
00000340: 982f af39 1258 cfbc 751e 63bd 830c b7bc
00000350: bc25 303b 7401 993c aa9f 8e3c 8ac9 10bc
00000360: fd83 11bd 36a1 6d3d e5c4 173a 7da9 363d
00000370: 08aa 683d 76bd 093c 2002 07bc d804 fbbc
00000380: a438 2dbd ab08 90bd f581 553d bc03 72bd
00000390: a30b ccbc f640 7ebd c8e4 0a3d 6d3c d8bd
000003a0: 9108 e63b 9b30 843d 46ab ebb8 7d31 98bd
000003b0: 9613 713c 0999 2e3c c599 a63c c022 e73c
000003c0: 174a 1d3e 4da5 4a3c a728 a8ba e44a a13c
000003d0: d7c9 94bb 7113 2c3c 5fc7 8fbc 0738 5fbd
000003e0: f0a7 5bbd 8e66 48bb 8696 893c 1464 0b3e
000003f0: 6e03 3fbd 19aa 4b3d 71d5 38bd 6112 923d
-0.040782377 0.01402848 -0.035875842 0.06263426 -0.07026319 0.032558896 -0.0067680925 -0.11879476
-0.013829291 -0.03234549 -0.013823468 -0.009550521 -0.01801432 -0.021075072 -0.021312624 -0.044318937
0.034110725 -0.062387172 0.0016211675 0.06221519 0.08356466 0.017505176 0.11244646 0.054426894
0.027669862 -0.021436619 -0.03638235 0.007248229 0.058482878 0.024426954 0.049040295 0.04294925
0.0012669201 -0.07742964 0.025853436 0.033736575 -0.015085647 -0.02355125 0.024482058 -0.009786185
-0.057349443 0.04406922 0.016373321 -0.057021 -0.014415646 0.001317933 -0.0057828436 -0.0056369645
0.022948202 0.04341465 0.09562177 -0.045684565 -0.06623369 0.038139734 0.008118367 0.09005652
-0.04172215 0.05894168 0.017825546 0.032670807 0.017019691 -0.058941178 0.012817133 0.019489812
-0.0033064384 -0.13721645 0.05303265 0.04536873 -0.18756 -0.05414831 -0.003527325 -0.012064904
0.062489007 -0.02803098 0.016795922 0.01591292 -0.03113248 -0.025040101 0.052172862 -0.009644003
-0.0053833276 0.02272734 0.084003836 0.032420695 -0.010941464 0.0029318326 -0.021472037 0.010235066
0.038926877 -0.05675051 0.011103186 -0.04075271 -0.03159929 0.010085794 0.014452779 0.051702183
0.017779356 0.07075628 -0.06519192 0.05345614 0.03023558 0.05530849 -0.038651824 0.09500408
-0.010782467 -0.066702574 0.0043995 0.06240019 -0.014339131 -0.019463263 -0.025812095 -0.019885005
-0.14844625 -0.022539303 0.0169335 -0.00815172 0.010627524 -0.014604541 0.016831608 0.05556766
0.059072115 -0.00054824946 -0.015029999 -0.13435775 0.055314027 -0.07274033 0.03210721 -0.08005718
0.03603447 -0.020365557 0.023253048 -0.048010368 0.07218977 -0.04637164 -0.01056251 0.12872815
0.0084187575 0.04109387 0.0053609083 0.027670009 0.020130107 0.020065201 0.036675155 0.039851725
-0.03253674 0.06506989 -0.010979335 -0.03811119 -0.08929461 -0.019149931 -0.07664857 -0.08257124
-0.03469675 0.010886357 0.035052694 -0.024829498 -0.051789995 -0.018072695 -0.04562262 -0.032857373
0.011689788 0.055883277 -0.039967176 -0.033516146 0.01784411 0.021089036 -0.025047531 0.027145253
0.07369109 -0.03726242 -0.0129238 0.0631067 -0.00744595 -0.011042449 0.012107615 0.020650743
-0.02030379 -0.042050656 -0.08776399 0.06452958 0.0716383 -0.029861521 -0.00490516 -0.08550201
0.057605818 -0.047951475 -0.017342916 -0.040378295 -0.014847113 0.03238235 -0.00785977 -0.018183196
0.015777517 0.1328381 -0.065220185 -0.037647963 0.16826496 0.0794884 -0.008365778 -0.0060673314
-0.08035737 0.0478413 -0.011202866 -0.026032742 0.01716816 0.02615362 -0.05450849 0.0143157365
0.0003341406 -0.02531055 -0.055448968 -0.022344833 0.002687796 0.01867745 0.017410118 -0.008837113
-0.035526264 0.05801507 0.00057895324 0.04459523 0.05680278 0.008406987 -0.008240253 -0.030641958
-0.042290345 -0.07032903 0.05212589 -0.059085593 -0.024907893 -0.06207367 0.03390959 -0.105584
0.007020064 0.06454583 -0.000112375754 -0.07431314 0.014714142 0.010656604 0.020336995 0.028214812
0.15360294 0.012368512 -0.0012829498 0.019689031 -0.0045406627 0.010502682 -0.017551122 -0.05449679
-0.053626955 -0.0030578705 0.016795408 0.13612396 -0.04663413 0.049722765 -0.04512543 0.07132412

action_model._discrete_distribution.branches.2.bias f4 [2]
00000000: 2bd7 e7bc 23d7 e73c
-0.028300842 0.028300827

action_model._discrete_distribution.branches.2.weight f4 [2, 128]
00000000: ced9 313d 02bc 7f3d 110b 183d b71c 85bd
00000010: 1925 2a3d 5228 e03b 8590 db3c ef5a 46bd
00000020: b1b4 0bbc e873 91bd 1c3f 843b 8a2e 863d
00000030: b265 243d a601 d33c ff16 7fbd 82fc 6abd
00000040: bfde aa3c f451 f7bc 2671 7b3c a14f 573c
00000050: b643 90bb fb9c fe3c 5d60 db3d e339 a2bd
00000060: 384b 17bd 8c8f 84bc 8d21 21bd 36c0 8d3c
00000070: 6890 41bd 1fbd b03d fb74 45be 342b aabb
00000080: ecef 38bd f156 3bbc 7565 a5bd 8826 aabd
00000090: 0aea 91bd c161 af3d 0942 fe3c cd25 b63c
000000a0: c88a bf3d 3749 b83b 3d58 74bd b328 ebb8
000000b0: 7c6d c33c 71f8 a83c 90e9 183d 6cf8 09bd
000000c0: cd18 cb3b 1ea7 debc 0a7b 513d 49de 2fbd
000000d0: 7733 e5bc a295 71bd 731d 1bbc bdb3 b83d
000000e0: 1783 cebb 8959 60bc a94e 703c b6a8 70bd
000000f0: 28f3 e5bc 2b5d 9f3b 6d2c 003e 234d fe3c
00000100: 402b 41bc 87ef ac3d 6c37 28be 6655 9b3c
00000110: 1d82 5cbd 85b5 b4bc 56fc 6cbd e3fa 043d
00000120: c74e 693d e460 ee3b afd5 7e3c d842 b93c
00000130: 5573 733d 3689 423c 574e 97ba 7cf0 203d
00000140: e97b 36bc 5a78 453c da38 903c 0e04 a43c
00000150: 1010 8a3c 9f5b 183d 3b25 6b3b 439d a73d
00000160: 4be8 903d ddce 20be 8df5 26bd c97c 11bd
00000170: f5a0 ab3d 4b7f bb3a 80da 11bc e55e 4dbd
00000180: cfbf 00bd e233 993d 67df cd3c 8935 623c
00000190: 8260 95bd 0739 0b3c e671 3d3d 95e2 da3d
000001a0: f713 f5bb 89fb 663d 0d04 85bc 0c1b e2bd
000001b0: c7b9 9f3d 0edf 71bd a9b7 78bd 1601 23be
000001c0: c4d3 7ebd 16bc 8c3c d421 353c aeb1 f0bc
000001d0: 5094 03be 71d0 553d ed53 e2bc aa5c 95bc
000001e0: 8224 193b 5940 063d 7ab4 49bd 64e1 07be
000001f0: f3ed 9d3d b3e9 3d3d 4e6f 3cbd 720c b5bd
00000200: a0ab a3bc 029e 6bbd 2324 e3bc 3b44 853d
00000210: 7eed ddbc 540f aebb f7a2 4ebd 5e27 e93c
00000220: cb8d 49bc e0b7 853d 4fe7 32bc 1263 82bd
00000230: 176a 6ebd 6df7 51bc cb24 9d3d 4d01 733d
00000240: 6031 52bb ab99 123c a4b9 bb3b 293c c0bb
00000250: 7299 e63b d282 4ebc 7c17 fbbd a1b9 a33d
00000260: 9375 c43c e095 ee3c 6bd2 003d 32eb c1bc
00000270: e343 1f3d 4214 bbbd 115c 433e 72d9 333c
00000280: 3b51 3f3d 79b9 2a3c 36ae 9d3d 8f9d af3d
00000290: 3493 ad3d 0aff aabd 5585 e3bc ac6a 7fbc
000002a0: 7cc6 c2bd bd20 96bc 5697 683d 9296 8c3c
000002b0: 8ed2 9abc f96c 06bd 57e9 e6bc c546 593d
000002c0: 50bd f63b 0794 1d3d e4f3 acbc 6732 303d
000002d0: 5b0f 093d c286 583d b0c9 28bc 2817 c1bd
000002e0: 53eb 8d3b eb08 f6bb cfa8 783a c791 9a3d
000002f0: dca5 253d 5213 023c 4950 06be 9e7f 2fbd
00000300: b267 5c3c c800 bdbd a1b1 1f3e 2301 16bb
00000310: f97f 743d 70b8 263d 70ce 853d c599 edbc
00000320: a12d 18bd 5bad 6b3c 03ff e8bb a23a 04bd
00000330: 28f4 56bd 5a3a 67bc b538 1d3b db26 f7bc
00000340: 0342 a73c ba14 a7bc 8ee7 c1bc dadd 98bb
00000350: 75a4 0d3a c119 18bd bca2 83bc 3b69 9abd
00000360: 21aa 8dbd 87ad 063e 21b5 2d3d 566b 0a3d
00000370: 082c bcbd 31cc c7bc 9d11 b13c ce9a 363d
00000380: 1ae5 df3c 0761 adbd 28d5 8dbc 9880 93bc
00000390: 2b43 713d 2cbc 37bb 10f9 3ebd 55d4 e1bd
000003a0: 77d2 bdbb d407 38bd a13b bf39 a4ae f33d
000003b0: 3f8b 9dbd 4e4b 343d 6685 043d 4091 303e
000003c0: 1794 8d3d 806a 22bd 836a 2a3b 76ea 3e3c
000003d0: 931c 193e bec7 5dbd b912 ef3c 79a1 893c
000003e0: 2599 5fbc c989 b7bc b8e1 4d3d 5962 e83d
000003f0: ff6f 9dbd 0081 24bd bf24 2b3d 19b8 953d
0.043420605 0.062435158 0.03711993 -0.064996175 0.041539285 0.006840744 0.02680231 -0.048426565
-0.008526967 -0.071021855 0.0040358435 0.06551845 0.040136047 0.025757622 -0.06227779 -0.057369716
0.020858167 -0.030190445 0.015346801 0.013141544 -0.004402603 0.031080713 0.10711739 -0.07921197
-0.03693697 -0.01618173 -0.039338637 0.017303567 -0.047256857 0.08629822 -0.19282906 -0.0051931385
-0.045150682 -0.011434303 -0.08075992 -0.083081305 -0.071247175 0.08563567 0.031037347 0.022234822
0.09352642 0.0056239623 -0.059654463 -0.00011213254 0.023855917 0.020626279 0.037332118 -0.03368418
0.006198025 -0.027179297 0.05114273 -0.042936597 -0.027978642 -0.05898059 -0.00946747 0.09018657
-0.006302248 -0.013693222 0.014667192 -0.058754645 -0.028070047 0.0048634014 0.12516947 0.031042641
-0.011790097 0.08444124 -0.16427392 0.01896162 -0.053835023 -0.022059212 -0.057857834 0.032465827
0.056959894 0.007274734 0.015553876 0.022614881 0.05943616 0.011873534 -0.0011543733 0.039291844
-0.011137941 0.01205262 0.017605234 0.020021465 0.016853362 0.03719675 0.0035880345 0.08184292
0.07075556 -0.15703912 -0.04076152 -0.035519395 0.083803095 0.0014304904 -0.008902192 -0.050139327
-0.031432923 0.07480599 0.02513094 0.013806709 -0.07293798 0.008497483 0.0462512 0.10687748
-0.0074791866 0.056392226 -0.016237283 -0.11040315 0.07799106 -0.059050612 -0.060722027 -0.15918383
-0.062213674 0.01717953 0.011055429 -0.0293816 -0.12849545 0.05220074 -0.02762791 -0.018232662
0.0023367708 0.03277621 -0.04924438 -0.13269573 0.07711401 0.04636545 -0.046004586 -0.088402644
-0.019979298 -0.057523735 -0.027727192 0.065071546 -0.027090784 -0.005311886 -0.050448384 0.028461155
-0.0123018725 0.06529212 -0.010919406 -0.063665524 -0.058206644 -0.012815339 0.07673033 0.059327412
-0.0032072887 0.00894777 0.005728917 -0.0058665466 0.007037335 -0.012604432 -0.12260339 0.0799439
0.023981845 0.0291242 0.03145067 -0.02367172 0.0388831 -0.09134723 0.1907809 0.010977136
0.046708327 0.010420197 0.07699244 0.08574974 0.084753424 -0.08349426 -0.027773539 -0.015589397
-0.09510514 -0.018326158 0.05678495 0.017161641 -0.018899228 -0.03281877 -0.028187437 0.053046007
0.007529892 0.038471248 -0.02111239 0.043016817 0.03346191 0.05286289 -0.010301992 -0.09428245
0.0043310313 -0.0075083873 0.00094856037 0.07547336 0.04044138 0.007939177 -0.13116564 -0.042846315
0.013452457 -0.09228665 0.15595104 -0.002288886 0.059692357 0.040703237 0.065335155 -0.029003987
-0.03715289 0.014384593 -0.007110478 -0.03228248 -0.05247894 -0.014113033 0.00239901 -0.030169895
0.020417219 -0.020395625 -0.023669984 -0.0046651186 0.0005403229 -0.037133936 -0.016068809 -0.07539602
-0.06917215 0.13152133 0.042409066 0.03379377 -0.09188086 -0.024389358 0.021614844 0.044581227
0.027330924 -0.08465772 -0.017313555 -0.018005654 0.058901947 -0.0028035743 -0.046624243 -0.11026827
-0.0057929116 -0.04492934 0.00036474786 0.118985444 -0.07692575 0.04401713 0.03235378 0.17242908
0.069130115 -0.039652348 0.0026003427 0.0116525795 0.14952306 -0.054145567 0.029183732 0.016800629
-0.013647352 -0.022404568 0.05026409 0.11346883 -0.07687377 -0.040162086 0.04178309 0.073105045

action_model._discrete_distribution.branches.3.bias f4 [2]
00000000: 42e3 20bd 44e3 203d
-0.03927923 0.039279237

action_model._discrete_distribution.branches.3.weight f4 [2, 128]
00000000: 0ec9 a7bd ef02 e63c f143 913c bd9b 2a3d
00000010: bd16 a739 34d9 00bd f9fa 5ebd bdb8 85bc
00000020: 4d99 aa3d 777d 6dbd ff2f 663c 692f 133b
00000030: ffc0 373d 3472 473b efb2 d6bb 2960 ab3c
00000040: 8c98 13bc 638b 373d 1124 ee3c 2d6d d8bc
00000050: c777 b4bb 8e9f 46bd 20b8 143d dc84 0a3d
00000060: 5695 153d 5dc6 8b3c 07c0 0cbd fd9d 473d
00000070: 7ad7 91b9 8d5b 9cbc 9af2 923d a852 ab3b
00000080: c147 10be 97dc 1f3d 845d 88bc 6339 5e3d
00000090: 9832 013d 7eac 2abd 0d18 e63c 1746 8d3c
000000a0: 1249 7c3d 0e25 11bc 449a 393d e1a9 99bb
000000b0: 6b7c f93b e388 9ebc 8381 643c fd70 7ebd
000000c0: 36f4 6e3c 8e29 983b e8a0 4f3d acb1 8f39
000000d0: 38a7 7d3c b1c3 1d3c 3846 bb3d df21 6c3d
000000e0: 61b9 9e3c e5e5 26bd 7c63 253d 6008 563d
000000f0: b813 673b 24f2 cabc 3aea 0c3e 1457 893d
00000100: 470a 3c3d 279d 0c3d f025 1dbc 32e8 293a
00000110: 84c2 27bd 812b 4e3c 887b 13bc 972d 53bc
00000120: ba4f 3e3d 97da 093d 1286 c93c 3ded d6bc
00000130: 1d6e ec3c 7f5c 20bd b58a b6bc 022a 19bd
00000140: 9a2f 50bd 9cee 5d3c 7e86 0fbd 773b e83c
00000150: 3a2a 36bd 42c6 30bc 2e04 d33c fb2c ec3d
00000160: f786 1c3d d0f8 64bd a169 ca3c 3bf0 403b
00000170: 1bc3 27bd f0e5 5f3d db3f c03c 2252 333d
00000180: 5d4b 8d3d ddee 353d 4a11 193d b9f0 5c3c
00000190: 36e6 fdbc 1160 aaba 5797 c53b 6865 d33c
000001a0: 9480 013c bb68 1fbc 0e87 983d 3aab 153c
000001b0: e0ee 253d 9b92 a03d ab8e efbc f5bf 543c
000001c0: e0d3 65bd c651 0e3d 398d 91bc 4061 303d
000001d0: 0e45 b4bc 6b01 41bd 7a5f d2bc a209 c8bc
000001e0: e9ae 623c 29a1 b0bc f159 07bd 7739 02bd
000001f0: 2937 753c 10a0 bcba 6b50 25be d33f 01bd
00000200: 7c9c 9d3d c4d5 d8bc bf8a 0bbd 0467 6bbd
00000210: 41fd 0f3c d312 0b3d fb66 5f3d f69c 9a3c
00000220: 165e a9bd 6edd 803d 9f9b 16bd 9ff2 f7ba
00000230: 010c 5fbd e775 aabc 0bed e3bb 21b8 09bd
00000240: 4062 183c 87ec 28bd 2d52 81bc 23e0 2f3c
00000250: 43ac 4a3b 8ecb 9b3d 3014 75bc d15e 12bd
00000260: abb6 2cbd 5f45 cdbc d5ca ef3c 1c7b 40bd
00000270: e43e 0abc b29f 9d3c 9f89 80bd c654 d9bc
00000280: 67eb 253e 8c78 3dbd 8eb9 b43c 40ab 67bd
00000290: 86a2 83bc 1690 fa3c b505 82bc ebbc c3bc
000002a0: b67a 3fbd 2656 c9bc 122b 59bd cfb7 543c
000002b0: 5f83 42bc 2ebd c03c 2990 893b f28f 863d
000002c0: a983 d7bc 3c79 c33b 9e3b 38bd 66a3 5f3c
000002d0: 0b3c c6bc dc26 2fbb 8b10 a9bd e953 78bd
000002e0: e12c b9bc 7487 d33c 0e31 8abd bc52 1bbd
000002f0: b2a5 d9bc c39a 423d f98e 03be 61b7 88bd
00000300: c5bc 12bd adc1 26bd 711a d2bb 53aa 97bb
00000310: 12f4 323d 00a1 92bb 7dfd 353c c17f baba
00000320: 0daf 5abd 6fa0 64bd 4aa0 2abd 7342 123d
00000330: a46f 91bc e5cb 383d cfb8 963b 7474 0d3d
00000340: 928e 6d3d d326 30bd a6f6 573c 0df7 bebc
00000350: 2691 b73c 217f 9f3b c4e2 2bbd f6a2 debd
00000360: 1279 97bc df5c 843d 0dd3 d2bc 1d6f 2f3a
00000370: 3f2f 263d 5058 58bd 3185 23bd 7ece 22bd
00000380: 3560 97bd cf35 51bd 7151 31bd 60a4 b0bc
00000390: 7483 163d e658 90bc afd1 1d3b 8167 2fbc
000003a0: 116e 853b 580d 4cbc 9fca 8fbd 2686 5fbc
000003b0: 38f8 f1bc 4f3f 9cbd 993f 1f3d 503f 4bbc
000003c0: fa29 3c3d fe6f 18bd f41c 19bb 48b4 50bd
000003d0: e3ba 363d 5767 ed3c a556 0d3d 0526 213d
000003e0: 7148 5cbc b7a6 983c a500 273d d1b7 093d
000003f0: 55b4 6238 f728 69bb 7969 1d3e be03 263d
-0.08192645 0.02807757 0.017732592 0.04165243 0.00031869664 -0.03145714 -0.054438565 -0.016323442
0.08330021 -0.05798098 0.014049529 0.0022458679 0.04486179 0.003043306 -0.0065520923 0.020919876
-0.009008538 0.044810664 0.029069932 -0.026419247 -0.0055074426 -0.048492007 0.036308408 0.03381811
0.03651937 0.01706236 -0.03436282 0.048734654 -0.00027817098 -0.019086624 0.07175179 0.0052283593
-0.14089872 0.03902873 -0.016646154 0.054253947 0.03154239 -0.041668408 0.02808764 0.017245336
0.061593123 -0.008858932 0.045313135 -0.0046894406 0.0076137087 -0.019352382 0.013946894 -0.062119473
0.014584592 0.0046436256 0.05069056 0.0002740746 0.015481763 0.009629176 0.091442525 0.05764949
0.019375505 -0.04074659 0.04037808 0.05225408 0.0035259556 -0.024773665 0.13761225 0.06706062
0.04590824 0.03432956 -0.009591565 0.0006481438 -0.04095699 0.012583614 -0.00900162 -0.012889287
0.046462752 0.03365573 0.024600063 -0.02623617 0.0288611 -0.03915071 -0.022282938 -0.037393577
-0.050826646 0.013545658 -0.03504037 0.028348668 -0.044473864 -0.010789456 0.025758829 0.11532017
0.03821465 -0.05590135 0.02470857 0.0029440064 -0.04095755 0.054662645 0.023467949 0.0437795
0.0689914 0.04441725 0.037370004 0.013485127 -0.030993562 -0.0012998601 0.006030004 0.02580519
0.007904191 -0.0097295595 0.07447635 0.009135062 0.040511012 0.07840463 -0.029242834 0.012985219
-0.056110263 0.034745954 -0.017767536 0.043061495 -0.022005584 -0.047120493 -0.025680292 -0.024418656
0.013835647 -0.021561222 -0.03304476 -0.031793084 0.0149667645 -0.0014390964 -0.16143958 -0.03155501
0.07695863 -0.026469119 -0.034067865 -0.05747129 0.008788408 0.0339535 0.05454157 0.018873673
-0.082698986 0.06292234 -0.036769506 -0.0018916911 -0.054454807 -0.020808173 -0.006955748 -0.033622865
0.009300768 -0.041241195 -0.015786255 0.010734591 0.003092543 0.07607184 -0.014958426 -0.035734955
-0.042166393 -0.025057493 0.029271523 -0.046992406 -0.008437846 0.019241188 -0.06276249 -0.026529681
0.1620308 -0.04625754 0.022061136 -0.0565598 -0.016068708 0.030586284 -0.015871862 -0.023893794
-0.046747886 -0.024577212 -0.05301959 0.0129832765 -0.011872142 0.023527708 0.0041980934 0.06570424
-0.026307898 0.00596538 -0.04497873 0.013649797 -0.024198553 -0.0026726043 -0.082551084 -0.060626898
-0.022604408 0.025821425 -0.06747638 -0.0379207 -0.026568267 0.047510874 -0.12847508 -0.06675602
-0.035824556 -0.040712047 -0.0064118435 -0.0046284585 0.043689795 -0.004474759 0.0111078 -0.0014228747
-0.053389598 -0.055817064 -0.04165677 0.035707902 -0.01775343 0.045116324 0.0045996676 0.034534886
0.057997294 -0.043005776 0.013181364 -0.023311162 0.02240808 0.00486745 -0.041964307 -0.10870926
-0.018490348 0.06463026 -0.025735402 0.00066922774 0.0405724 -0.052818596 -0.039921943 -0.039747708
-0.07391397 -0.051076706 -0.04329056 -0.021562755 0.036746457 -0.017620515 0.002408128 -0.01070583
0.004071959 -0.012454353 -0.07021069 -0.013642823 -0.029537305 -0.07629263 0.03887901 -0.012405232
0.04593847 -0.03721618 -0.0023363205 -0.05095318 0.044611823 0.02897994 0.03450646 0.0393429
-0.013445006 0.018634183 0.0407721 0.033622567 5.4050546e-05 -0.0035577395 0.15372266 0.040530913

action_model._discrete_distribution.branches.4.bias f4 [2]
00000000: f423 91bc fc23 913c
-0.01771734 0.017717354

action_model._discrete_distribution.branches.4.weight f4 [2, 128]
00000000: e7eb e13c 9a2f 92bd 3574 283d 9aff ae3c
00000010: b901 223b 4f88 d93b f957 4f3c 7265 92bc
00000020: c6d9 dabb 9fba 833c 1429 8b3d d751 483d
00000030: 068d 11bd 7099 c0bc 431a 673d 6caa 933c
00000040: 531f ea3b 6f57 edbb e76c 00bc de41 1abd
00000050: 32c4 a7bc 9e43 38bd d215 e4bb f761 a93c
00000060: 7bb8 823d d440 ed3c 265e 3b3b e9b7 3b3d
00000070: dc10 56bb 6572 e1bc b877 eb3b 3f4c 793d
00000080: 9102 9b3c dbd8 9f3c 2d9e 1fbd c2b0 f03c
00000090: 6e74 bdbb 7110 ed3c 5af5 913b e280 17ba
000000a0: f9ef 363d 8e17 12bd 2232 f93c 3e96 b03c
000000b0: 1ab6 2c3d 33f4 263d b981 b8bb 2e9e 27bd
000000c0: 943f 6f3d 9081 c53b d8a2 133b b686 963c
000000d0: e46e 29bd c99d 533c 8fc4 863b 9225 093c
000000e0: 8146 76bc 6db8 193b 26de 7f3b 5111 823c
000000f0: e3fd 7d3d fe12 7abc b9ec f03c 6e5a bfbb
00000100: 0d65 973d 62ee 5cbd 18a0 e4bc 8f9e 84bd
00000110: 18fb 973b b7e6 d7bc 486f 2c3c e6fb 0e3d
00000120: ea7c bebc 709f 1c3c f187 2d3d 125b 4a3d
00000130: 4643 8d3c f940 433d 199d 93bd 1fbd 193d
00000140: af56 76bd f27e b43d e8ce 193d 5fac bf3d
00000150: 5074 123d 1f17 003a 6adc 41bc 8a77 e8bc
00000160: eac8 913b 5d3d 2a3c 20f3 c63c b84e 80bc
00000170: c719 b2bc 74d7 893a 4fb0 8c39 cbbb 363d
00000180: 376b 1b3b 9aea 053d 26d2 683c c657 4b3d
00000190: 257e 6b3c 9fcc c6bc e2f2 8f3d 1bec 133c
000001a0: 927a 303d e53b 033d d2e5 963c 7202 fa3b
000001b0: 9451 0bbd 45d1 563c fc6a 843d e6cd 5c39
000001c0: 1127 a5bc 5ead ffbc f1ae 62bc a8eb 4a3d
000001d0: 6a2b 0fbc 0377 ebbc 9a11 20bc 4cbc e83c
000001e0: 9410 ac3c 05b1 093d b610 7f3d 08d6 36bb
000001f0: 8d62 44bd 137e 8e3c 572b 60bd ba5c 90bd
00000200: 1ef8 d9ba 87b2 843d 9f18 4ebd fff2 04bd
00000210: 2e8a 08bc 208a 7ebb c096 d9bc a93e fb3c
00000220: 0f0a 9c3b 83d2 89bc 45b4 8cbd 76ef 33bd
00000230: ce63 263d 9d7c 053d 7386 3ebd 61d2 acbc
00000240: 734e 94bc b534 693c d1ca 773c 12ba d93c
00000250: 18db b53c 53a2 483d f26c 0aba 2058 98bc
00000260: b515 83bd 18f4 99bc 3efe 0cbc d134 48bd
00000270: 1727 893c 59f4 e43b ba18 35bc 348d 55bd
00000280: 1a3d 04bb 58ee e23b 647a eb3c 8736 f5bc
00000290: e93e 81ba ded4 65bb e3c3 d23b 2094 383b
000002a0: 2958 66bd 410d 613d 2f34 10bd 3740 23bc
000002b0: b3b4 44bd 951e 24bd abb1 803c 675d 353d
000002c0: 8635 43bd 14e2 c63b 748a efba d715 9abc
000002d0: f2b2 db3c 3057 ebbc abe1 e6bb d47a bebc
000002e0: 8b84 3b3c d391 8fbb 94c1 77bc b4cc 87bb
000002f0: 2bd0 88bd 8aa2 1e3b 67a6 44bd 06f3 303c
00000300: 6858 1abd 82b9 793d cac2 c33c d705 823d
00000310: dff2 e9bb d2c6 ab3c 4f6e b8ba 0dcc 25bd
00000320: 077d 0a3d 0be5 7abc 2501 3ebd 652f 72bd
00000330: f7ec 86bb 6616 76bd 57fd 853d d1aa c0bc
00000340: 5a3e 083d 15a2 bfbd 82fe d7bc 561e bbbd
00000350: e0da d0bc f06f a83c 505a b73c 034e 743c
00000360: ae9d e33a e8d5 56bc 02ee 07bc 5afc 49bc
00000370: 9584 033d fa85 fb3a 7bdc 2aba 6843 27bd
00000380: 3c5b fc3b 50ec e8bc d116 84bc 80b7 2cbd
00000390: e597 c2bc a4cf 503c 2015 7ebd e468 8fbc
000003a0: 53dd 37bd a9e0 4cbd fcd7 b8bc 48da c6bc
000003b0: 5097 313d 6646 efbc a255 6bbd d375 faba
000003c0: 49b9 573b b78d 803c 4bf2 293b a351 56bd
000003d0: 9722 2b3c a99b 8e3c 9afe 5abc e935 01bc
000003e0: 0faf a6bc a216 c4bc d779 8cbd 821b 653b
000003f0: ca10 0f3d 6f58 13bd 9d1c f23c 7b69 9c3d
0.027578307 -0.071379855 0.04112645 0.021362115 0.0024720265 0.0066385637 0.012655252 -0.017870639
-0.0066787926 0.016080199 0.067949444 0.048906174 -0.03553488 -0.023510665 0.05642153 0.0180256
0.0071448474 -0.007243089 -0.007838464 -0.037660472 -0.020479295 -0.04498636 -0.006960609 0.020676596
0.06382843 0.028961577 0.0028590052 0.045829687 -0.0032663858 -0.027520368 0.0071859024 0.06086373
0.018922122 0.019512584 -0.038969208 0.02938116 -0.0057817018 0.028938504 0.004454297 -0.0005779398
0.04466245 -0.035666995 0.030419413 0.021556016 0.042165853 0.04076023 -0.0056306985 -0.040922336
0.058410242 0.006027408 0.0022527482 0.018374782 -0.04136552 0.012916037 0.004112787 0.008370774
-0.015031458 0.0023455874 0.0039042323 0.015877398 0.062009703 -0.015263317 0.029409753 -0.0058396375
0.07392321 -0.053938277 -0.02790837 -0.06475555 0.004638087 -0.02635513 0.010524578 0.034908198
-0.023252923 0.009559497 0.042365972 0.049403258 0.017243993 0.047669385 -0.072076984 0.037533876
-0.06014126 0.088132754 0.037550837 0.09359049 0.035755455 0.0004886258 -0.011832336 -0.028377313
0.0044489997 0.010390607 0.024285853 -0.015662536 -0.021740807 0.001051648 0.0002683424 0.044612687
0.0023715028 0.032694437 0.01421026 0.049644254 0.014373337 -0.024267493 0.07028748 0.00902846
0.043085642 0.03203954 0.018420134 0.007629686 -0.034013346 0.013111417 0.06465718 0.00021057538
-0.02016023 -0.031210598 -0.013835655 0.049541146 -0.008738378 -0.028743273 -0.009769822 0.0284101
0.021003999 0.033616085 0.062271796 -0.0027898569 -0.047945548 0.017394101 -0.054728832 -0.07048936
-0.0016629731 0.06479364 -0.05031645 -0.0324583 -0.008333726 -0.0038839653 -0.026561141 0.030669527
0.0047619413 -0.016824013 -0.06870321 -0.04392954 0.040622525 0.032589544 -0.04651494 -0.02109641
-0.018103814 0.014233758 0.015124039 0.026577983 0.022199199 0.04898293 -0.00052805163 -0.018596709
-0.06400625 -0.01879315 -0.008605538 -0.048878495 0.016742272 0.0069871363 -0.011053259 -0.052136615
-0.002017802 0.0069253854 0.028744884 -0.029933227 -0.0009860668 -0.0035069506 0.006432043 0.0028164461
-0.05623642 0.05494428 -0.035206016 -0.0099640405 -0.04802389 -0.040068228 0.015709719 0.04427853
-0.047658466 0.006069431 -0.0018275515 -0.018809242 0.026818726 -0.028728098 -0.0070459447 -0.023251928
0.011445175 -0.0043813973 -0.015121836 -0.0041442756 -0.0668033 0.0024205768 -0.048010256 0.010800129
-0.037681967 0.06096793 0.023896594 0.0634877 -0.007139548 0.020968828 -0.001407096 -0.0404778
0.03381064 -0.015313397 -0.04638781 -0.05912723 -0.004117604 -0.060079955 0.06542461 -0.023518952
0.033262588 -0.093570866 -0.026366476 -0.091366455 -0.025494993 0.020561188 0.022381932 0.014911178
0.0017365718 -0.013112523 -0.008296492 -0.012328232 0.032108862 0.0019189708 -0.00065178395 -0.040835768
0.0077013057 -0.028432995 -0.016124161 -0.042167187 -0.02375407 0.012744818 -0.062031865 -0.01750607
-0.044888806 -0.05001894 -0.022563927 -0.024274006 0.043357193 -0.029208373 -0.057454713 -0.0019108601
0.0032916835 0.015692575 0.0025931771 -0.05232395 0.010445259 0.017408209 -0.013366366 -0.007886388
-0.020347146 -0.023936573 -0.068591766 0.0034959023 0.03492812 -0.03597301 0.02955466 0.07637306

action_model._discrete_distribution.branches.5.bias f4 [2]
00000000: 9e37 3d3b 9f37 3dbb
0.0028872262 -0.0028872264

action_model._discrete_distribution.branches.5.weight f4 [2, 128]
00000000: 7e15 703c cff0 e5bc d2f6 17bd 01ad b6bc
00000010: 324d 4dbc 8763 493c f5db 11bd a8f6 323c
00000020: fe81 05bc 493d 3e3c c312 acbc 7988 11bd
00000030: 8443 0b3c 0cf6 583d e0cc e43b 2570 75bd
00000040: 5221 913c 1584 bebb a035 033d 0c00 9cbc
00000050: e4af 96bc b954 21bd e95b 9c3c 36c4 d4bb
00000060: 3745 16bb 4ddc 34bd 7d69 333c c0c5 0dbb
00000070: 1d9a 31bd d030 e33c f267 3a3d ad21 25bc
00000080: 881a a73c 9423 51bd 7089 bcbc e5d7 bebb
00000090: 8ca8 44bd 911d 193b 0dc5 fcbc a645 0f3b
000000a0: 1c0b 383b 2c25 003c 06cc d8bc 29b1 a3bc
000000b0: 055e b73c 49c6 95bc 8b65 5d3d 6d59 2dbd
000000c0: 2d7d 743b d241 e4bc 0baf dfba 4079 eb3b
000000d0: 1dd9 903c ee6f 15bd 2bd0 4e3c 6b42 14bc
000000e0: 0518 8ebb 2052 3e3c 9ee4 85bd 8c57 4e3d
000000f0: 759e 5fbd 17f6 05bd 818f 1b3d b8c2 44bd
00000100: a8e6 42bc ba3a 6abc a9a5 06ba 3980 fabb
00000110: 7ca3 8bbc 85b2 0a3c ccf0 813d 8eca 4abb
00000120: bbb1 923c 4259 06bd 7534 c5bc 70e6 88bc
00000130: dc74 8abc 59dc 1d3a df03 2fbd 2d15 53bc
00000140: 8e52 373d 4afc 78bd 0cc3 cbbc 1e11 12bd
00000150: 1c0f 283c be97 cdbc 9c9a 0dbd a52c f73c
00000160: 2008 dfbc 1035 27bc ce3a 70bc c971 843c
00000170: ba9c 543c 4158 69bd 3a63 963a 63a2 523d
00000180: 3ae0 9bbc 6268 67bd 4f82 82bd e25e 983c
00000190: af54 32bc 036e 393d 1470 373b e541 0e3c
000001a0: e3a6 503d 229f 1ebd 672b 843c 264b 92bc
000001b0: c7e3 1d3d 0b73 d53c 68c6 83bd 924e 553c
000001c0: 1bfe 773a 016f afbc 137b 8aba 03be 5f3a
000001d0: ca4c 94bd bd7a 45bc 86f4 093d 17eb 9f3c
000001e0: 5438 89bb ddaf 103d 9735 d0bd b46c 8ebc
000001f0: 2771 f03b be51 f23c ca9b bbbb 8f57 8abc
00000200: cc7a c2bc c05b aabb 5d3c 143d cb76 a33c
00000210: 99cd 073d fbf1 40bc 48d2 0f3d 94a9 bebb
00000220: b138 83bc ac0f 34bc dcd7 6c3c 23c1 253d
00000230: f574 45bc fc1c 6fbd dcef 3bbc 97fe 893d
00000240: ee6b 87bb cb6a 9b3b a8ba 34bd 206b 2a3c
00000250: db43 df3b 3847 313d 0c2f 6cbc b5e7 363c
00000260: 10c6 4b3b f3a0 263d 6333 80bc 0f6f 87bb
00000270: c9e9 1b3d 797f febc 383d 62bd 5880 853c
00000280: dd0f 8cbc 967c f23c 8e85 c83c a34a 7ebc
00000290: b266 f83c caa0 1fbc 58e4 d03c d3db d93c
000002a0: e8e0 e7bb e96d aa3b eca7 003d 4851 953c
000002b0: 280c 0abc ec21 2c3c 86a5 75bd 686e 413d
000002c0: d8f4 90bc 207a f03c f783 e03c 5418 d1b9
000002d0: 0ead 6cbc c563 053d 58cc 5fbc 4e45 e83c
000002e0: 7563 1e3c 0271 17bc 3e76 913d 83f1 67bd
000002f0: c717 583d 2362 343d 9bb9 d6bc 5e96 2e3d
00000300: fc80 da3c 4087 0dbc cf1b 253c 9aa4 143c
00000310: 66fa b73a 6c16 4dba b553 8bbd 138b c63c
00000320: d9f3 85bc 0b91 1a3d d7e8 b33c 0d9f 193c
00000330: 31ec 643c e372 a13b 0958 4e3d 7fd7 423b
00000340: 4283 2bbd 116a 363d 772b cf3c 3304 cc3c
00000350: 0818 7dbc 2a0f ff3c 79fc 083d fe35 aabc
00000360: bcf3 283d 0f55 00bc 8910 2b3c f9a1 c239
00000370: ba20 19bc 37e3 3d3d 6113 37bc 9995 96bd
00000380: 3671 eb3c f6f8 673d 75e6 563d c9f7 dfbb
00000390: ce60 313c 4b2d 27bd 1b58 e93b 68db 4dbc
000003a0: b169 36bd 6295 213d 3326 ebbc 4abc ba3c
000003b0: 9349 f4bc c478 ccbc 4840 8a3d 3483 203b
000003c0: 0a53 5fbc 2857 8e3c 1274 c4bc 8c0d 0bba
000003d0: 2e9f 9f3d 33e9 6b3b e547 adbc c84b 74bc
000003e0: 3a0c be3c 6c5c 74bd 55a2 273d c5a5 fc3c
000003f0: 341f ec3b a32f 5fbc 9f70 44bc b256 e83c
0.014653562 -0.028068928 -0.03710062 -0.022299292 -0.012530612 0.012291796 -0.035610158 0.010923065
-0.008148668 0.011611291 -0.02100504 -0.03553054 0.008499984 0.052969024 0.006982431 -0.059921402
0.017716084 -0.0058140852 0.032033563 -0.019042991 -0.018394418 -0.03938744 0.019086795 -0.0064931167
-0.002292944 -0.044155408 0.010950443 -0.002163276 -0.043359865 0.027733237 0.045509286 -0.01007883
0.020398393 -0.05105932 -0.023014754 -0.0058240765 -0.0480123 0.002336357 -0.03085568 0.0021861582
0.0028082794 0.007821362 -0.026464473 -0.019981937 0.0223837 -0.018283026 0.054051917 -0.04232161
0.0037306056 -0.027863417 -0.0017065717 0.007186085 0.017681653 -0.036483698 0.012622873 -0.009049038
-0.0043363594 0.01161626 -0.06537746 0.05037646 -0.054594476 -0.032705393 0.037978653 -0.04803726
-0.011895813 -0.014296228 -0.00051363796 -0.00764468 -0.017045729 0.008465414 0.063447565 -0.0030943486
0.017907014 -0.032799967 -0.024072865 -0.016711444 -0.016901426 0.0006021909 -0.0427283 -0.012883467
0.044756465 -0.060787477 -0.024873279 -0.035660855 0.010257509 -0.02509677 -0.034571275 0.030172655
-0.027225554 -0.010205522 -0.014662458 0.016167538 0.01297682 -0.05696893 0.0011473664 0.051424395
-0.019027818 -0.05649603 -0.06372511 0.018599931 -0.010884448 0.04527093 0.0027990388 0.008682703
0.050940406 -0.03872598 0.016133977 -0.0178581 0.038547304 0.026055833 -0.06434327 0.013019221
0.0009460167 -0.021415235 -0.0010565243 0.0008535089 -0.07241209 -0.012053189 0.03368046 0.01952128
-0.004187623 0.035323966 -0.101664715 -0.017385818 0.0073377076 0.029579993 -0.0057253586 -0.016887454
-0.023740195 -0.0051989257 0.03619038 0.019954106 0.033155058 -0.011776443 0.03511265 -0.005818555
-0.016018244 -0.010990065 0.014455762 0.040467393 -0.0120518105 -0.05837725 -0.011470761 0.06738012
-0.0041327393 0.0047429553 -0.04412332 0.010401517 0.006813509 0.04328081 -0.014415514 0.011163642
0.0031093396 0.040680837 -0.015649503 -0.0041331123 0.03806475 -0.031066643 -0.055234164 0.01629655
-0.017097408 0.029600423 0.024477746 -0.0155207245 0.030322406 -0.009742925 0.025499508 0.026594078
-0.0070763715 0.0052010906 0.031410143 0.018227234 -0.00842575 0.0105061345 -0.05997231 0.047224432
-0.017694876 0.029355109 0.027406676 -0.00039881712 -0.014445556 0.03256585 -0.013659559 0.02835336
0.009667267 -0.009243252 0.07102631 -0.056626808 0.05275705 0.044038903 -0.02621155 0.04262387
0.026672833 -0.008638203 0.010077431 0.009072447 0.0014036417 -0.00078234705 -0.06803075 0.024236238
-0.016351627 0.03773598 0.021961613 0.0093763 0.013972328 0.0049270256 0.050376926 0.0029730496
-0.041873224 0.044534747 0.02528928 0.024904346 -0.015447624 0.03113516 0.0334439 -0.020777699
0.04124807 -0.00783278 0.010440954 0.00037123243 -0.0093461815 0.046359267 -0.011174054 -0.07352752
0.028740507 0.056633912 0.052465875 -0.006834958 0.010826303 -0.04081468 0.0071210987 -0.012564518
-0.04453439 0.039449103 -0.028704738 0.022794861 -0.02982024 -0.02495993 0.06750542 0.0024492266
-0.013630638 0.017375544 -0.023981128 -0.0005304448 0.07794033 0.0035997152 -0.021152446 -0.014910646
0.02319919 -0.059658453 0.040926296 0.030840764 0.007205868 -0.013622197 -0.011989742 0.028361652

action_model._discrete_distribution.branches.6.bias f4 [2]
00000000: 094a 36bc 074a 363c
-0.01112605 0.011126048

action_model._discrete_distribution.branches.6.weight f4 [2, 128]
00000000: 6e03 91bc d2db c1bb 810a dd3b 0ca6 71bb
00000010: f365 733c 5c91 1dbd 3dfe 253d f2e2 79bc
00000020: 2276 06bd 6683 dc3c 6fa5 a53d 92dc 223c
00000030: 73aa 55bb e21b f0bc 2ca5 1a3d 936f 2e3c
00000040: e1a6 c039 203d c1ba d87d a43c 60af 5fbc
00000050: fba9 023d 55cb d33c 3935 52bc 75f5 88bb
00000060: 470a 843c b50c 013d ced5 1e3d 7d51 c93c
00000070: 25ac 633d 478d a5bb ba9c a1bc af79 713d
00000080: 31d4 37bd a66e 6b3d 2497 c0bc 2126 003d
00000090: e80f a83c 6413 9d3d b61e dd3c 461f 0d3d
000000a0: 805e f6bc 628f c23d 8025 aaba 9f3b e93c
000000b0: aec9 353d d6f0 903d 3321 29bb d3c4 b1bc
000000c0: 830c 94bc 7b99 db3a 2a3a d8bb 5ba8 d9bb
000000d0: 18f7 463d ceff 863c 1c83 39bd cb4c 0c3c
000000e0: d229 10bc 0f70 18bd 8e3c a43c 83dc 6d3c
000000f0: b23b 343d 6cb4 aa3c aa66 a83c 0d44 47bd
00000100: 8567 593d 597c 3fbd cf34 bcbb 1058 30bd
00000110: e6ae 633d 5336 a83c 6eb6 c83c 6064 74bd
00000120: d6db 8dbc 18ba 023a d48d 06bd 40b4 9a3a
00000130: 36e1 9e3c 5269 bdbc e70d 563d 3cbf ee3b
00000140: b5fe d63c 5c16 04bd 12bf 45bc eeef 04bd
00000150: 8864 15bd c855 8f3c e368 6e3c eca8 9f3a
00000160: 0c0a 2c3c dd46 41bd 8ed9 b63c a5d3 c4bc
00000170: 8403 82bc ce4d a7bb 67bf ad3c ca71 4a3d
00000180: a8b6 983c f419 98b8 3016 e33c 3ab5 c33b
00000190: d1b9 6fbc f7ef 3db9 34ec e43b 8418 cdbc
000001a0: 4b35 e5bc 3adb 51bb 28f4 373d a34e 11bc
000001b0: 5d28 9e3d a3bd 98ba a0fb 353d d586 bbbb
000001c0: 486b a6bc 6974 c23c 0354 063d 9a01 763c
000001d0: 1011 2c3d 2228 fdbb 5d6f 723c c203 2abb
000001e0: 49b4 5aba 85dc d1bc 1554 b63c 9466 a73c
000001f0: 6362 db3c 6bd9 74ba cae0 2f3d 627e a83d
00000200: 61d9 c53c 703b 18bc 102c b5bc bab4 123b
00000210: 81b8 85bc 1d40 553d 6550 54bd e109 a73c
00000220: d03d dd3c 95a8 dcbc 9f7b afbd 08f5 613b
00000230: 2c8a 5b3b 6435 ba3c 20d4 96bc 7494 d8bb
00000240: d99b d13b 087d ac3b a72a d5bc 27ec 293c
00000250: 3820 1ebd ab29 36bd e256 303c f506 1dbb
00000260: 0960 0cbd 1415 b0bc 4a5c bdbc b62c ddbc
00000270: 3f60 67bd 08e4 933b 6c22 4bbb 010e 53bd
00000280: 4c0b 1a3d 4bb5 52bd e8ae 113d f1ff f5bc
00000290: 1664 1cbd d1e1 87bd 2bb6 bcbc 68a8 94bc
000002a0: 8c98 cb3c 55e8 d4bd 4a9e 553c 69d2 20bd
000002b0: f1ac 59bd 3ece 49bd db08 873b eab4 0c3d
000002c0: 1f29 493d 652b 8c3b 0645 8d3c bd8e 1a3b
000002d0: d42b 04bd a231 bcbc 27a9 a73c 743c ff3b
000002e0: 0755 03bc b60f 093d 8ac1 96ba 83aa bbbc
000002f0: cb59 07bd 7ebb 3a3b af01 e8bc 66f6 2e3d
00000300: eb35 7ebd 467e ce3c cb81 c6bb f2a1 2a3d
00000310: aaf6 72bd d4ff 21bc 3e2a 35bc 60d4 793d
00000320: c2d9 b5ba 0cce fb3b 85f7 5f3c a706 54bc
00000330: 29ca 28bc 8b7d 823c bd1a 51bd d4a3 5cbc
00000340: 6cbb 18bd 0c33 003d 138b 433d c550 493d
00000350: 85aa 153d 8d44 0abd 815e d2ba dd5c 86bc
00000360: f3c9 7abc 3a5c 223d ccfc 8abc dd7e 163c
00000370: 4894 333b e9f4 8b3c 1944 c9bc b587 19bd
00000380: 70b5 e8bc 561d 1a3c b956 11bd 8eed 71bc
00000390: ffad 0d3b 68a2 583c b691 7bbc b696 db3c
000003a0: 644f bd3c 746a 6d3c 7ad9 efbc 7f56 ca3b
000003b0: dd84 3bbd fa6e 353c 340c 27bd 84c9 dfb9
000003c0: 2db3 a53c e040 39bc 4501 f4bc c6d1 d4bc
000003d0: dfeb 2fbd a629 5fbb 4094 93bc 4972 87bb
000003e0: b418 b5bc 4877 1d3d 0df8 02bd dac9 e2bc
000003f0: 674a 543b b246 f13b 4cd7 1abd bbd9 92bd
-0.01770183 -0.005916097 0.006745637 -0.0036872653 0.01485585 -0.038468704 0.040525664 -0.015251862
-0.032827504 0.026918124 0.080881946 0.009940283 -0.0032602816 -0.02931017 0.037755176 0.010646719
0.00036745428 -0.0014742948 0.020079538 -0.0136526525 0.031900387 0.025853792 -0.012830072 -0.0041796514
0.016118182 0.03150626 0.03877812 0.02457499 0.05558409 -0.005052242 -0.019728053 0.058953937
-0.044880096 0.05747857 -0.02350957 0.031286363 0.020515397 0.07669714 0.026992183 0.034453653
-0.030074358 0.09500004 -0.0012981147 0.028470812 0.04438179 0.07077186 -0.0025807142 -0.021700298
-0.018072372 0.0016754115 -0.0065987306 -0.006642384 0.04857549 0.016479399 -0.04529105 0.008563231
-0.008799033 -0.037216242 0.020048406 0.014517906 0.044002242 0.020837985 0.020556767 -0.048648883
0.05307724 -0.046749447 -0.0057436 -0.043052733 0.055586718 0.020533716 0.024501052 -0.059666038
-0.01731674 0.00049868366 -0.0328501 0.0011802986 0.019394498 -0.02312151 0.052259352 0.0072859805
0.0262445 -0.032247886 -0.0120694805 -0.032455377 -0.036472827 0.017496958 0.014551374 0.001218108
0.010500442 -0.04718672 0.022320535 -0.024026701 -0.015870817 -0.0051057106 0.021209432 0.049424924
0.018641785 -7.252759e-05 0.02772054 0.0059725316 -0.014631704 -0.00018113838 0.0069861654 -0.025036104
-0.027979514 -0.0032021538 0.04491058 -0.008868846 0.077225424 -0.0011653196 0.04442942 -0.0057228603
-0.020314828 0.02373715 0.032794964 0.01501503 0.04200846 -0.0077257315 0.014797059 -0.0025942181
-0.00083429046 -0.025617847 0.02225689 0.020434655 0.026780313 -0.0009340259 0.042938985 0.082272306
0.024151506 -0.009291515 -0.022115737 0.0022385553 -0.01632333 0.052063096 -0.051834483 0.020390453
0.027007014 -0.026935855 -0.08568501 0.0034478325 0.0033499105 0.022730537 -0.018411696 -0.006609494
0.0063967523 0.0052639283 -0.026021315 0.0103712445 -0.038604945 -0.04447333 0.010762902 -0.0023960446
-0.034271274 -0.021494426 -0.023115296 -0.026998859 -0.05648827 0.0045132674 -0.0030995859 -0.051527027
0.03760843 -0.051442426 0.035567194 -0.030029269 -0.038181387 -0.06634868 -0.023036083 -0.018146709
0.024853013 -0.10395876 0.013038227 -0.039263163 -0.053143445 -0.049268954 0.0041209287 0.03435222
0.04911148 0.004277634 0.017244827 0.0023583614 -0.03226836 -0.022972886 0.0204664 0.007789189
-0.008015878 0.03346225 -0.0011501771 -0.022908455 -0.033044618 0.0028493102 -0.028321115 0.042715453
-0.06206314 0.025206696 -0.006057953 0.04165835 -0.05931727 -0.009887654 -0.011057435 0.060993552
-0.0013874101 0.007684475 0.013669853 -0.012941039 -0.010302105 0.015929004 -0.05105089 -0.013466794
-0.037288114 0.031298682 0.047740053 0.049149293 0.036539573 -0.03375678 -0.0016049893 -0.016401703
-0.0153069375 0.039638735 -0.016966246 0.00918552 0.0027401615 0.017084556 -0.024568604 -0.037482936
-0.028406829 0.009406408 -0.035483096 -0.01476611 0.0021618602 0.013222314 -0.015354564 0.026805263
0.023109145 0.014490712 -0.029278506 0.006174862 -0.045781005 0.011073822 -0.040783122 -0.00042684015
0.02022704 -0.011306971 -0.029785762 -0.025978934 -0.042949554 -0.0034051924 -0.018015027 -0.004133497
-0.022106506 0.038443834 -0.03197484 -0.027684141 0.003239298 0.007363164 -0.03780298 -0.07170435

action_model._discrete_distribution.branches.7.bias f4 [2]
00000000: 3d7b 1aba aa7a 1a3a
-0.0005892998 0.0005892912
